artifacts/model.pt (torch, 111104 bytes, 4 tensors)

i2h.weight f4 [128, 186]
00000000: 1bc2 9a3e 671a 333e 21c7 80bd f04d c93c
00000010: c271 483d 77e4 e43c b31b d4bc e415 3c3e
00000020: 8951 a0bd f836 0f3e f33e 7ebe 6d52 253d
00000030: 1662 113e 1364 80be 0895 423e 5fd8 28be
00000040: 412a ccbd f793 59bc 3306 d9bd 5aae 59bd
00000050: cb41 0f3e 04e2 8dbc 4af9 4b3e 1818 0f3d
00000060: 67a9 10be 5d84 b93d e809 66be 461a 293c
00000070: 2d94 a3bd 0b7d c5bd bf5a db3b 0fe2 d73c
00000080: ddec 943d a68f c13d f85c d43d 1a9b e9bd
00000090: 438c 9fbc 0d0d 2c3c f4b2 1abc 32b1 38be
000000a0: b921 883c d7f8 84bd 422e 5ebd 41d6 8c3b
000000b0: 2cd3 e2bd 603b f6bb b742 86bc 68b4 53bd
000000c0: 1738 0cbe a3ab aabc c42f 8fbd a614 82bd
000000d0: b984 a8bb 3928 3bbd 670e 943d f88c 453d
000000e0: 2363 363d a043 82bd ec4b 80bc 1497 273d
000000f0: 8fc8 16ba d454 24bc 205e 4d3d 1386 423d
00000100: fb19 83bc b5d4 a03d 7ecc febc e704 24bd
00000110: 2411 8a3d 18a5 e8bc e4b1 0c3e 420c dcbd
00000120: 4933 9a3d 11c3 52bd 4be4 0f3c 9b46 2a3d
00000130: 611b febc 5886 4a3d 31b0 70bd 0070 0e3d
00000140: 331b c23b 4940 c93d 5319 dcbd d15c d63d
00000150: 926b 80bd d359 2dbd bacc 41bd fcae 82bc
00000160: b107 e3bc 578c 0bbd 9dd7 09bd 0c4b 613d
00000170: ce86 053d 7ab2 53bd 0970 1c3c d895 833d
00000180: df23 7c3d 9dd2 8d3d fe0d a4bc a1cc 3b3d
00000190: a6ff 743d bd91 89bc 59d8 78bd b7b2 c83b
000001a0: 9ce4 babc 431a 4ebc 6428 5b3d c9d7 5fbd
000001b0: fc10 3f3d 4b6f a4bd a402 81bd 95ef 0a3d
000001c0: 5d12 b5bc cb93 5cbc eaaa 84bc e74d 19be
000001d0: b044 283c 0e6b efbc 385e 78bd c3f7 3ebd
000001e0: ca42 b13a c17c 7bbd d49e b1bd b2b9 1e3e
000001f0: b397 5a3d 34ba b5bd 3d28 1abd 415c 6bbc
00000200: c5c7 eb3c e3ef 00bc f347 a6bd 0fbd 01bd
00000210: 7a2d 203e ceb4 283d 5568 75bc a349 adbd
00000220: 50a4 c03d 4f3e 11bd 5f48 d0bc 8413 423d
00000230: d5c8 103d 95e4 823d 745b a7bd af87 50bd
00000240: 5fc0 923c ef6c 8c3d 35be 0dbe 21c6 9abc
00000250: 12f4 00bd 01b6 85bd 6839 2e3d fe9b 5e3d
00000260: f7b0 593d ab29 ba3a 98fb 923c 4ab4 ebbc
00000270: f653 c7bd d1b2 82bc 0a45 0d3d 27a6 29bd
00000280: 21e2 423d 4a19 1fbd ca1a 043d ee3c ab3c
00000290: f1b6 e53b 5336 8abd 2998 433c 670e cc3d
000002a0: ceca ad3d e939 043d a020 8fbc 40cf f9bd
000002b0: 2e5d 883d 7754 31bd 94d7 6dbc 574e 75bc
000002c0: aae1 8bbc c2a8 f6bd e518 873c 62b2 6ebd
000002d0: b719 403d 6c95 1cbc 3ee1 89bb fddb 973d
000002e0: 2743 a1bd bc89 7b3d 7190 36be dd9c bbbd
000002f0: 0aa4 0bbe 94a8 0bbe 17f9 433d c9bb b33c
00000300: bd3f 29be f84a 2abe 393c 313e a28e 3c3e
00000310: fb0c 593e 10de 0abd 9f5d 823d 4227 1bbe
00000320: 5e61 b5bd 3c28 05bd 4c96 e0bc 9dda 97bd
00000330: c043 863e 7d33 013c d22c 9e3d b6a2 b7be
00000340: d2b0 af3d f174 923d a01c 73bd bc57 dd3d
00000350: 4362 663c f599 8a3e 8ec5 92bc 1f79 45be
00000360: 3e6d 833d b062 19bd 4c5b a23d 0c07 69be
00000370: 832a 063e 24e4 143e f712 d73d 5d80 67be
00000380: c1a7 6f3d 11b6 ff3d c663 2abe cc3a 1dbe
00000390: 4aad ce3d ef10 8dbe 2766 433e 1dbe 51be
000003a0: 8939 71bd f929 a7be 896c d33d 4231 f13d
000003b0: 771f 6d3e a55f 273e eb13 35bd bc71 82bd
000003c0: a12a 8fbd 00be 853a 9553 74be a389 633d
000003d0: 28f0 b23d 9e73 ad3a 7c56 fa3b 8d56 3e3d
000003e0: fa25 173d 55d9 ddbc 8c29 d23d 4939 6bbd
000003f0: 599f cebd d866 fcbd 7c87 3abb af15 423d
0.30226216 0.1749054 -0.06287981 0.024573296 0.048936613 0.027940972 -0.025892114 0.18367726
-0.078280516 0.13985813 -0.248287 0.04036181 0.14197573 -0.2507635 0.19002163 -0.16488789
-0.09968997 -0.0132799065 -0.105968855 -0.05314479 0.13989942 -0.017319687 0.19919315 0.034935087
-0.14127122 0.090584494 -0.22464716 0.0103212055 -0.07987247 -0.09642991 0.0066941674 0.02635291
0.072717406 0.09451227 0.10369295 -0.114065364 -0.019476062 0.010501158 -0.00944208 -0.18036345
0.016617643 -0.06492775 -0.054243334 0.004298002 -0.11075434 -0.0075144023 -0.016389234 -0.05168572
-0.13693272 -0.020833796 -0.069915324 -0.063515946 -0.005142775 -0.045692656 0.072293095 0.04823014
0.044528138 -0.06360555 -0.015661202 0.040915564 -0.00057519315 -0.01002999 0.050138593 0.047491144
-0.0160036 0.07853071 -0.031103369 -0.040043738 0.067415506 -0.028399035 0.13739735 -0.107445255
0.07529313 -0.05145556 0.008782457 0.04157124 -0.031018915 0.049444526 -0.05876178 0.03477478
0.0059236526 0.098267145 -0.10747018 0.10466922 -0.062705174 -0.04232199 -0.047314383 -0.01595258
-0.027713628 -0.034069385 -0.03365289 0.05500321 0.032599263 -0.05168388 0.009548196 0.06425065
0.061557647 0.06924937 -0.020026203 0.045849446 0.059814118 -0.016793126 -0.0607532 0.00612482
-0.022814088 -0.0125795035 0.053505316 -0.054649148 0.046647057 -0.0802904 -0.06299332 0.03391989
-0.022103483 -0.013462971 -0.01619478 -0.14971124 0.010270283 -0.029225852 -0.06063673 -0.046623003
0.0013523933 -0.06139827 -0.08672872 0.15500525 0.053367328 -0.08873406 -0.03763603 -0.014365257
0.028781781 -0.007869693 -0.08119192 -0.03167444 0.15642348 0.041188054 -0.014978488 -0.08461311
0.0940634 -0.035459813 -0.025425134 0.047381893 0.03534778 0.06391255 -0.0817174 -0.050910648
0.017913995 0.06856715 -0.1384209 -0.018893303 -0.031482764 -0.06528855 0.042535216 0.054347984
0.053147282 0.0014203092 0.017942235 -0.028772492 -0.09732811 -0.015954407 0.03448967 -0.04141822
0.047578935 -0.038842477 0.03225211 0.020903077 0.0070103337 -0.06748643 0.011938133 0.099636845
0.084859475 0.03228179 -0.017471611 -0.12197733 0.066583976 -0.043293443 -0.01451673 -0.014972291
-0.017075378 -0.12043907 0.016491363 -0.058275588 0.046899524 -0.009557109 -0.004207759 0.07415006
-0.078741364 0.06141065 -0.17828538 -0.09160779 -0.13636795 -0.13638526 0.047844972 0.021940129
-0.1652822 -0.16630161 0.1730813 0.18413785 0.21196358 -0.03390318 0.06365513 -0.15151694
-0.08856462 -0.032509074 -0.027415417 -0.07414744 0.26223564 0.007885811 0.077233925 -0.35866326
0.08578648 0.07151211 -0.05935347 0.1080775 0.014061513 0.27070585 -0.017916467 -0.19284485
0.06417321 -0.03744763 0.0792757 -0.22756594 0.13102154 0.14540154 0.10501664 -0.2260756
0.058509592 0.12485898 -0.16639623 -0.1535446 0.10091646 -0.27551982 0.19081937 -0.20482679
-0.05889276 -0.3264921 0.10323436 0.11776973 0.23156534 0.16345079 -0.04420845 -0.06369349
-0.06990553 0.0010203719 -0.23860009 0.055551182 0.087372124 0.0013233309 0.0076397043 0.04646926
0.03690145 -0.027081171 0.10261831 -0.05742768 -0.10088987 -0.123243034 -0.0028462103 0.04738396

i2h.bias f4 [128]
00000000: 8a19 4cbd cb6b 55bd 6d21 833c ae44 aa3d
00000010: d452 a2bc cac6 f5bd 54df dc3c f963 b6bc
00000020: d2f1 c03d e27c c9bd 44bf 4b3c be60 e93d
00000030: 2e94 463e 0c87 583d 51fd 27be 9a5a 95bd
00000040: a365 89bd eb69 a3bc 89cc 09bd bf88 583d
00000050: aa5e 85bd eebe 4e3c a7ef 0bbd 2793 b3bd
00000060: a380 7abd 06f0 2dbd 2ec5 51bd b7c9 4ebd
00000070: 8f4d 423d ac53 c23d b575 a23b 9972 dd3d
00000080: a54b 26bc 15ba 6abd 1809 a43c 1814 613d
00000090: 9239 43bd 2018 e13c fcde 733d 9125 973d
000000a0: bb27 9e3c 2dfe db3c 0f14 8b3d a4d1 663d
000000b0: ab38 5e3d 7edb bbbd a025 88bc 34e0 123d
000000c0: 551c 7d3d a1ef 7abd 4232 443c 7be1 663c
000000d0: 7282 0bbb 55b3 8ebc e521 10bd 39a0 b6bd
000000e0: 51d0 a23c 52ec 1d3d e69b ac3b 7521 b2bd
000000f0: c51c 3c3d 7275 3e3d 1f2a f93d b6cd 843d
00000100: 41f1 23bd 112b b43d c5cb e33d 70b8 8fbd
00000110: de82 8bbc fd9e 17bd 4fc3 b5bd 3292 7f3c
00000120: 7417 c4bd 24cf c53d 3402 3bbd 5731 a4bd
00000130: a015 9fbd be39 2cbc 44aa ba3c ecff 0e3d
00000140: 1e02 9a3d 54e9 833c 9f8b ed3d 74aa 0abd
00000150: 727b cf3d 4204 7dbd ca79 60bc 99c1 f1bb
00000160: fe62 79bd 0bc8 893d 0cca 6bbd 0a45 adbd
00000170: b70d e0bb 066f 96bd 159c 78bd 07c0 ddbc
00000180: a0d7 d9bd f173 cabc 4bab f03d 8d29 0f3e
00000190: 0867 27bd 863d 44bd 27de 0bbe 15a6 353c
000001a0: d715 623c 14ae 3e3d c1ed 09bd 51b5 483c
000001b0: 348a 993d 5b54 9a3d 6041 a9bd 4fb9 893d
000001c0: ef57 42bc b284 b3bd 5751 063e d8a2 3bbd
000001d0: 4365 c33d 0f87 3f3d 4646 aebd 3134 28bd
000001e0: ca18 b4bd 0e0f 253d 1bee 26bc 7fb3 51bc
000001f0: 13e9 32bd e5c5 18bd 69e9 d6bd 6ddc 63bd
-0.049829043 -0.052104753 0.01600715 0.08313881 -0.019814886 -0.12000807 0.02696196 -0.022264468
0.094211236 -0.09838273 0.012435738 0.11395405 0.19392464 0.052863166 -0.16405226 -0.072926715
-0.06708839 -0.019947967 -0.033642326 0.052864786 -0.06512196 0.012618763 -0.034164097 -0.087683015
-0.061157834 -0.042465232 -0.051213436 -0.05048534 0.047437247 0.094886154 0.0049578794 0.108128734
-0.010149871 -0.057306368 0.020023867 0.054950804 -0.047662325 0.027477324 0.059538826 0.07380212
0.019306054 0.026854599 0.06790935 0.056352273 0.05425326 -0.09172724 -0.016619503 0.035858348
0.061794598 -0.061263684 0.011974873 0.014091845 -0.0021287468 -0.017419497 -0.035188574 -0.08917279
0.019874724 0.03855545 0.005267608 -0.08697788 0.045925874 0.046498723 0.12166237 0.06484549
-0.040025 0.08797277 0.1112285 -0.070176005 -0.017030176 -0.037016857 -0.08875143 0.0155988205
-0.09574786 0.096586496 -0.045656398 -0.08017223 -0.077677965 -0.010511814 0.022786267 0.034912035
0.07519935 0.01610247 0.11598896 -0.033853963 0.10130967 -0.06177164 -0.013700912 -0.007377815
-0.060885422 0.06727608 -0.057565734 -0.08460434 -0.0068375724 -0.07345395 -0.060695726 -0.027069105
-0.1063683 -0.024713488 0.117514215 0.13980694 -0.040869743 -0.047910236 -0.13658963 0.01108696
0.013799152 0.046552733 -0.033674005 0.01225026 0.07497063 0.07535621 -0.082644224 0.06724798
-0.011861785 -0.08765544 0.13116966 -0.045809597 0.095407985 0.04675966 -0.08509497 -0.0410654
-0.08793791 0.04029756 -0.010188605 -0.012799143 -0.04367931 -0.037298102 -0.10493738 -0.055630136

i2o.weight f4 [18, 186]
00000000: 7524 8e3f e5e7 193d 3447 a13e bebb 90be
00000010: 550a 2abf 449d 4dbe 9757 60be f982 833e
00000020: a3ca 4abf 5902 993c 97d2 ca3f 4464 7e3f
00000030: d6ec 72be 1ee6 10bf c8b7 3abf ebcc 603e
00000040: 5fda 10bd b3b5 e93e 1b02 30bf 7e74 0a3d
00000050: 01a0 5fbe 7e17 33be 40c1 e0bd e8ac e3bd
00000060: 0c3e 8f3e 2c50 dbbd 48fc 6e3c 5dd6 5d3d
00000070: 568d 7dbd 4c3b 79bc 0427 67bd 20c9 57bb
00000080: c31c 803d a58b 833d 45ac 953d f0c5 a73b
00000090: 908d 013c 62dd ddbc 8c60 31bc d63b 5c3d
000000a0: e21a 943d 3151 02bd 5049 d6bc d653 eabc
000000b0: 3c1b fa3c a084 3b3b f1d9 3cbd d227 5fbd
000000c0: 404d ddbb 1279 723d 7ce5 86bc cd74 02bd
000000d0: 0646 d7bd 10ad 013d a6a7 3ebd 06ea 613d
000000e0: f06d cc3c 8e94 b2bc cc0b 50bc 02de 0a3d
000000f0: 4663 8ebe b2b9 333e dbbc 773e a0a5 8fbe
00000100: 08ad 003e 1e64 75be fb1e 00bd 8815 75bd
00000110: d517 bfbd 1180 61be e15a 2d3c 5fcc 6a3c
00000120: aa80 01bd 9b42 a8bd abad c2bc 5b8c bb3b
00000130: e34b 34bd b799 b3bd e9f2 783e 0af3 273e
00000140: 7e75 273e 5eed 26bd 1fe5 81bd 3f12 7fbd
00000150: f440 153d 416a c8bd f2fc e8bd 717f 443e
00000160: c270 84bd 9a9e 70be d78b 8e3e 757c 69bc
00000170: e6b7 ae3d 2fe9 fc3d cb1c 813b 595b 493e
00000180: 7a6a a83e fddc 93bd 19c2 a4bd e71b 4bbe
00000190: 5e13 1c3c 2f12 2c3e 286b 77be be41 523e
000001a0: 3b5e 84bd 8089 3ebd a008 dcbc dffc 573d
000001b0: b3d4 9c3d 17be ffbd bb1f 11bd ee3e 25be
000001c0: 67c8 be3d 6a74 2ebe 78f9 3c3d b524 3d3e
000001d0: ba45 bb3a cba3 f1bd de90 6fbb 2b3f 79be
000001e0: cddb e2bc 8095 023d bcea 983d 3832 78be
000001f0: 36e2 e23a cbfb 9abd 4554 e2bd c3c3 493e
00000200: b802 4c3e 42d2 68be 7504 813e fa92 aabd
00000210: 51b0 b63c b2eb bc3d df67 083c 1ce6 533e
00000220: 1dcc c13c 1328 fdbd c6ee 003d c7bd 333e
00000230: 810d 70bd 663e b13d aa7f 143c ec47 e03d
00000240: b5c2 53be 57ef 9e3a 3d0a cd3c 809a 32be
00000250: dd3f edbd 39eb d93d 9183 703e 50d5 d7bd
00000260: 3954 603e d1b1 d23b 7250 4ebd a492 b1bd
00000270: ad1f a73d bff9 be3c 8bbf 06be 7c90 c73c
00000280: 740e 3b3c 3058 803e 479c 4bbe 01a2 39bd
00000290: d807 06bd e025 bc3c db38 a03e 9aef a7bd
000002a0: 44de fdbb f208 c93d d9c0 5dbe acd0 a23c
000002b0: 3226 2e3e 7c23 9dbd d673 d23d d4ac 50be
000002c0: a8da abbd a27d d73d 8d53 b33e 8cc7 cdbc
000002d0: cb64 1ebd da78 9dbd 396b 90bc 3481 a0bd
000002e0: 6e64 72bd 25c3 00be a4da 98bf 1b39 d43d
000002f0: 71ec c0bd 4919 433e 69bd 063e 4f14 0e3e
00000300: a149 653e 2a2b 513e 8139 16bf 4162 4dbd
00000310: c5ab cfbd d66d 0b3f 523e afb9 dec3 f63e
00000320: 600a 61bf 751d 4b3e c7d9 64bd 78fc e23f
00000330: c88b 87be bed3 033f aca9 46be 02c7 9dbe
00000340: 0bc2 eabd 24f9 97bd 6f82 34bf 9e5c 2d3f
00000350: 2001 92bd ee4c 3e3d 3254 0a3d 4049 6f3c
00000360: 4ba8 893d 90f2 a23c ffa9 943d fea0 5b3d
00000370: c883 11bc af3a 2abd 1879 ff3c 3285 03bd
00000380: f51e 46bd 180c 123c f53a 84bd c402 85bd
00000390: 9434 3cbd c4a1 45bd 6ec2 793d e04d a6bb
000003a0: 00d1 b93c b623 31bd d653 4a3d 50d9 253c
000003b0: 8b2c 82bd 7644 0cbd 42e4 18be 1895 633c
000003c0: dc67 0cbd 4afe a0bc f898 50bd 3ae9 773d
000003d0: bbe7 21bd 9608 bd3c 3d40 c0bd e288 0dbd
000003e0: c2fd 813e c568 8ebc 6585 153e bff7 1dbe
000003f0: 7b3c d63d bd1b 6e3d 2ba4 cd3b cab3 20be
1.1104876 0.037574667 0.31499636 -0.28268236 -0.66422015 -0.20079523 -0.21908413 0.25685862
-0.7921545 0.018677877 1.5845517 0.99371743 -0.23723158 -0.5660113 -0.7293668 0.2195317
-0.035364505 0.45646438 -0.6875321 0.0338025 -0.2183838 -0.1748943 -0.109743595 -0.111169636
0.27977026 -0.10708651 0.014586516 0.05415951 -0.061902367 -0.015211891 -0.056433693 -0.0032926276
0.06255486 0.064231195 0.073082484 0.0051200315 0.007907286 -0.027083103 -0.010826241 0.053768
0.0723169 -0.03181571 -0.026158005 -0.02860443 0.030530564 0.0028612986 -0.046106283 -0.054481335
-0.0067535937 0.059197493 -0.016466849 -0.03184967 -0.10511403 0.031659186 -0.0465466 0.055154823
0.024954766 -0.021799352 -0.012698125 0.03390313 -0.27810115 0.17551306 0.24193136 -0.2805605
0.12566006 -0.23963973 -0.031279545 -0.059834987 -0.093307175 -0.2202151 0.010580749 0.014330952
-0.031616844 -0.08215829 -0.023764452 0.005723519 -0.044017684 -0.08769553 0.24311413 0.16401306
0.16353413 -0.040753715 -0.063425295 -0.06227326 0.036438897 -0.09785891 -0.113763705 0.1918924
-0.06466819 -0.23498002 0.27841064 -0.014250864 0.085311696 0.12349164 0.0039402 0.19663753
0.32893735 -0.072198845 -0.08044834 -0.19834863 0.009526102 0.16803811 -0.2416197 0.20532891
-0.064632855 -0.04651785 -0.026859581 0.05273139 0.07657757 -0.12487429 -0.03543065 -0.16137287
0.093155675 -0.17036596 0.04613635 0.18471034 0.0014287748 -0.11798819 -0.0036554853 -0.24340503
-0.0276927 0.031880856 0.07466647 -0.24237907 0.0017309848 -0.07567557 -0.110512294 0.19703583
0.19922912 -0.22736457 0.25198713 -0.08328815 0.022300871 0.09224643 0.008325546 0.20693249
0.0236569 -0.12361159 0.031477712 0.17552863 -0.05860663 0.0865448 0.009063641 0.10951218
-0.20679744 0.0012125772 0.025029296 -0.1744175 -0.115844466 0.10640568 0.23487689 -0.10538733
0.21907128 0.006429889 -0.050369687 -0.086705476 0.081603386 0.023312448 -0.13159005 0.024360888
0.01141702 0.25067282 -0.19883834 -0.045320515 -0.032722324 0.022967279 0.31293377 -0.08199997
-0.0077474434 0.09816159 -0.21655597 0.019874893 0.17006758 -0.07672784 0.10276 -0.20378429
-0.08391315 0.105220094 0.35024682 -0.025119565 -0.038670342 -0.07689066 -0.017629253 -0.078371435
-0.05917781 -0.12574442 -1.1941724 0.103624545 -0.094200976 0.19052614 0.13158192 0.13874935
0.22391368 0.20426622 -0.58681494 -0.05014253 -0.10140184 0.5446447 -0.00033425033 0.4819631
-0.87906456 0.19835456 -0.05587175 1.7733297 -0.26473832 0.5149497 -0.19400662 -0.30815893
-0.11462792 -0.07420567 -0.70511526 0.6771945 -0.07129121 0.046460085 0.0337717 0.0146048665
0.067215525 0.019891053 0.07258987 0.05362033 -0.008881517 -0.04155987 0.031185672 -0.032109447
-0.048369367 0.008914016 -0.06456558 -0.06494668 -0.04594858 -0.048249975 0.06097644 -0.0050752014
0.022682667 -0.043246947 0.04939636 0.010122612 -0.06356152 -0.034244977 -0.14930823 0.013890527
-0.034278736 -0.019652504 -0.050927132 0.060525157 -0.039527636 0.023075383 -0.093872525 -0.03455437
0.25388914 -0.017383942 0.14601667 -0.15426539 0.104607545 0.058131922 0.006275674 -0.15693584

i2o.bias f4 [18]
00000000: 5f20 713e d66a c93e a50f dabb b92c afbe
00000010: f0ea 253e 03e6 0e3f 7c9e 5fbd d1c9 203e
00000020: 2948 103d 3d0a ff3e c3e9 c5bd 8fde 82bf
00000030: 22c7 06bf cb8a f5be cd4a 5b3c 5379 b93c
00000040: 11c9 443f debb 8bbe
0.23547505 0.39339322 -0.006654697 -0.34213808 0.16202903 0.5581972 -0.0545945 0.15701987
0.035225067 0.498125 -0.09663727 -1.022417 -0.526476 -0.47957453 0.013384533 0.02264086
0.76869303 -0.2729177
