artifacts/model.pt (torch, 111104 bytes, 4 tensors)

i2h.weight f4 [128, 186]
0	0xbe3da747	-0.18520842
1	0x3d7edb1a	0.06222067
2	0x3e78370b	0.24239747
3	0xbe2893b8	-0.164626
4	0xbe732188	-0.2374326
5	0xbdc7495f	-0.09730791
6	0xbe20ea10	-0.15714288
7	0x3dcf2cf2	0.101159945
8	0xbd74f054	-0.059799507
9	0xbe3c2b42	-0.18375877
10	0xbe36b329	-0.17841782
11	0x3d23bc85	0.039974708
12	0xbe74b5e1	-0.23897506
13	0x3e33ff4d	0.17577858
14	0xbe553456	-0.20820746
15	0xbd992fb4	-0.07479802
16	0x3dc5cf4f	0.096586816
17	0xbc17489c	-0.00923362
18	0x3ebd0916	0.36920995
19	0x3d417f4f	0.04724055
20	0xbdc05178	-0.09390539
21	0xbe0cc1fb	-0.13745873
22	0xbe817e21	-0.2529154
23	0xbcaf8add	-0.02142852
24	0xbe8a53b5	-0.27016988
25	0xbeb0f817	-0.34564278
26	0x3e685db5	0.22691996
27	0xbd8c9ae3	-0.0686548
28	0x3d722b3d	0.059123266
29	0x3d7049bf	0.05866408
30	0xbcaa9e50	-0.020827442
31	0x3dda14fb	0.10648533
32	0x3e6228be	0.22085854
33	0xbb8c501a	-0.00428201
34	0xbd8cc605	-0.06873707
35	0xbb7d1c84	-0.0038621733
36	0xbe25ee6e	-0.16204235
37	0x3ce29c13	0.027662313
38	0x3d96fe93	0.07372775
39	0x3bd45aac	0.0064805355
40	0xbbf970d2	-0.007612326
41	0xbbf0f62f	-0.007353566
42	0x3dd31c15	0.103080906
43	0x3e7957a4	0.24349838
44	0x3d370b6b	0.044688623
45	0x3e2e36bd	0.17013068
46	0xbd71b3ab	-0.059009235
47	0x39c0181d	0.0003663906
48	0xbd05c0b5	-0.032654483
49	0x3d7ec54f	0.062199887
50	0xbdef9355	-0.11698023
51	0x3dc06957	0.09395092
52	0x3db5b2e5	0.08872012
53	0xbd545b94	-0.05184515
54	0xbd4fbd8e	-0.050717883
55	0xbd192aed	-0.037394453
56	0x3dfb73fb	0.12277981
57	0xbd79a7c5	-0.060951013
58	0x3dbbd6b0	0.09171808
59	0x3daa7de7	0.08324795
60	0xbdb5a857	-0.08869999
61	0x3cce367b	0.025172463
62	0x3da84f7d	0.08218286
63	0x3ca276e2	0.019832078
64	0x3dccf743	0.10008099
65	0x3d7d297a	0.061807133
66	0xbd917549	-0.071024485
67	0xbd5b901a	-0.053604223
68	0xbe055596	-0.1302093
69	0x3cba1b3f	0.02271807
70	0x3d9a07f0	0.07521045
71	0x3d75ed51	0.060040776
72	0xbc58b5f2	-0.013226973
73	0x3cc9685e	0.024585899
74	0xbdf4b368	-0.119482815
75	0x3d4b5236	0.04963895
76	0xbbb22a8a	-0.0054372
77	0xbd0261ac	-0.03183143
78	0xbd4f0129	-0.050538216
79	0xbd3a7bf2	-0.04552836
80	0x3d87d83c	0.0663304
81	0xbd03c30e	-0.03216844
82	0x3e175cc4	0.14781481
83	0xbd21d38a	-0.03950838
84	0xbda13b1d	-0.07872603
85	0xb9c8a799	-0.00038271843
86	0xbd07a064	-0.033111945
87	0xbdd3f390	-0.1034919
88	0x3da38813	0.079849385
89	0xbe024902	-0.12723163
90	0xbda4fe26	-0.080562875
91	0xbd9d11ca	-0.076694086
92	0x3cb0465e	0.021517929
93	0xbdd03f8b	-0.1016837
94	0xbc9a8197	-0.018860621
95	0x3d1f0d6e	0.038831167
96	0xbd7f7e4f	-0.062376317
97	0xbd877d5a	-0.06615706
98	0x3d882bbd	0.066489674
99	0xbb5577a1	-0.0032572525
100	0xbcaac916	-0.020847838
101	0x3bacfc91	0.0052791317
102	0xbdc635f1	-0.09678257
103	0x3ddbd831	0.107345946
104	0xbd5a6eb6	-0.05332824
105	0xbe1d3fcc	-0.15356368
106	0x3b98527e	0.0046485057
107	0x3d09f083	0.033676635
108	0xbc9ab14b	-0.018883368
109	0x3d0d3e79	0.034483407
110	0x3d9b1595	0.07572476
111	0x3c10c6ba	0.008836443
112	0xbd33edc4	-0.043927923
113	0x3db25ade	0.08708738
114	0xbd46164a	-0.0483611
115	0xbc6705a7	-0.014100469
116	0xbb93bf99	-0.004508924
117	0x3d534e0e	0.05158811
118	0x3d942cb5	0.0723509
119	0x3da89dbc	0.082332104
120	0x3daa9e77	0.08331006
121	0xbc9f7041	-0.019462707
122	0x3dbea263	0.093083166
123	0x3d9578ff	0.07298469
124	0x3ba1f34c	0.0049423333
125	0xbc00e2c3	-0.007866564
126	0xbd056a13	-0.032571863
127	0xbd75162d	-0.0598356
128	0x3d62cd6f	0.055371698
129	0xbd52c0b1	-0.051453296
130	0xbdac89b7	-0.084247045
131	0xbbc3c6af	-0.0059746127
132	0xbd2038d9	-0.039116714
133	0x3c0ab5e0	0.008466214
134	0xbd7d447c	-0.06183289
135	0x3da64993	0.08119502
136	0xbd966460	-0.07343364
137	0x3ac0fb25	0.0014723284
138	0x3d037baa	0.032100357
139	0xbd35922a	-0.044328846
140	0x3d09824f	0.033571538
141	0x3e0f0c5d	0.1396956
142	0x3dbd93b6	0.09256689
143	0x3c7d07c1	0.015443743
144	0xbd6cb280	-0.05778742
145	0x3be17fd1	0.006881692
146	0xbd3080b5	-0.043091495
147	0x3d3e551b	0.04646788
148	0x3aec5f42	0.001803376
149	0x3d203384	0.03911163
150	0xbcd41ad8	-0.025891706
151	0xbca8368d	-0.020533824
152	0xbd12c860	-0.035835624
153	0x3d07172a	0.032981075
154	0x3d242bfd	0.040081013
155	0x3d2393f4	0.03993602
156	0xbd40d838	-0.047081202
157	0xbdcf4cc1	-0.101220615
158	0xbdeed2f2	-0.116613284
159	0x3e0a0376	0.13477883
160	0x3d1a2629	0.03763405
161	0x3e0bae9a	0.13640824
162	0xbd699882	-0.05703021
163	0x3c311686	0.010808593
164	0x3cf1b38a	0.029504556
165	0x3e1528dd	0.1456637
166	0x3d7af437	0.061268058
167	0xbde13fb9	-0.10998482
168	0x3d4fe0aa	0.050751366
169	0x3dad6e1c	0.08468267
170	0xbda83c2a	-0.082146004
171	0x3d70b894	0.058769777
172	0x3dac5951	0.08415473
173	0x3d799d67	0.060941126
174	0xbd086731	-0.033301536
175	0x3dd5135c	0.10404083
176	0xbda3cc65	-0.079979695
177	0xbd77f2ea	-0.060534395
178	0xbd714a69	-0.058908854
179	0x3d00fb1c	0.031489477
180	0xbcd1eb5c	-0.025624923
181	0xbd80489f	-0.062638514
182	0xbb33c398	-0.0027429815
183	0xbd2548ed	-0.04035275
184	0xbd8c410c	-0.06848344
185	0xbdfa3322	-0.12216784
186	0x3e74ad26	0.23894176
187	0xbdfe1aa5	-0.12407426
188	0x3e2456b9	0.16048707
189	0xbe28790f	-0.1645243
190	0x3e5c3944	0.2150622
191	0x3d216529	0.039403114
192	0x3addf882	0.0016935023
193	0x3e38f767	0.18063127
194	0xbd1aaf0f	-0.037764605
195	0xbd09f325	-0.033679146
196	0xbea2476a	-0.3169511
197	0xbdfa4f1c	-0.1222212
198	0xbe9874e8	-0.29776692
199	0x3d3023c5	0.043002862
200	0x3e35d365	0.17756422
201	0xbdc3ed3a	-0.09566732
202	0x3cddc687	0.027072204
203	0xbd4b8639	-0.04968855
204	0xbe4973bc	-0.19673055
205	0xbe6b510e	-0.22980139
206	0xbad72c2d	-0.0016416364
207	0x3e26bf77	0.16283976
208	0xbe88ebc0	-0.26742363
209	0xbe13e6a5	-0.14443453
210	0xbd1fad27	-0.03898349
211	0xbe26e277	-0.16297327
212	0x3d778ee3	0.060439
213	0x3dade9ec	0.08491883
214	0x3e3ea0b3	0.1861599
215	0x3e08abc5	0.13346775
216	0x3d15b484	0.036549106
217	0x3d28f23d	0.04124664
218	0x3d5191fe	0.05116462
219	0xbcec3978	-0.028835997
220	0xbd4b4430	-0.049625576
221	0xbe059ac5	-0.13047321
222	0xbce67367	-0.0281312
223	0x3e3212b5	0.17389949
224	0xbdece818	-0.11567706
225	0xbce15cb9	-0.027510034
226	0xbd2d951b	-0.042378526
227	0x3e2bb74a	0.16769138
228	0x3b9b4604	0.004738571
229	0x3d44c5d0	0.04804021
230	0x3dd37f3f	0.10327005
231	0x3e20408a	0.1564962
232	0xbc9eb11f	-0.019371567
233	0x3e5580a2	0.20849851
234	0xbe8b9a08	-0.27265954
235	0x3d93527f	0.07193469
236	0xbe0d51b8	-0.13800704
237	0x3db6be56	0.089230224
238	0x3c70360d	0.014661324
239	0xbc9a802c	-0.018859945
240	0xbd634b20	-0.055491567
241	0xbc987140	-0.01860869
242	0x3d0f05ea	0.03491775
243	0x3d2b3fbd	0.041808832
244	0x3d0421c9	0.032258783
245	0x3c025f98	0.007957362
246	0xbc7239a4	-0.01478425
247	0xbcfd77ff	-0.030941008
248	0xbcdb2410	-0.026750594
249	0x3d2e97ab	0.04262511
250	0xbd851a32	-0.06499137
251	0xbd1125b2	-0.03543634
252	0xbda135e2	-0.078716055
253	0xbd9cadb2	-0.07650317
254	0xbcfd59ea	-0.030926663
255	0xbd196d7a	-0.03745792

i2h.bias f4 [128]
0	0x3d897866	0.06712417
1	0xbdd504b1	-0.104012854
2	0x3dfdb843	0.12388661
3	0x3cda8c96	0.026678365
4	0x3d3c9222	0.0460378
5	0xbd445384	-0.04793121
6	0x3d1a071c	0.037604436
7	0xbd207409	-0.03917316
8	0xbbce6bf9	-0.0062994924
9	0x3d182c11	0.0371514
10	0xbc6acba0	-0.014330775
11	0xbd6fce0b	-0.058546107
12	0xbc8cafa6	-0.0171736
13	0x3adff69e	0.0017087047
14	0xbd00c782	-0.031440265
15	0xbcb91745	-0.022594104
16	0x3dee5b55	0.11638514
17	0x3c0b0841	0.008485855
18	0x3c99fff0	0.018798798
19	0xbdc90fbf	-0.098174565
20	0xbd34e070	-0.044159353
21	0xbcbb5d46	-0.022871625
22	0xbd6867ad	-0.056739498
23	0xbd2b1135	-0.041764457
24	0xbc5e8820	-0.013582259
25	0x3e01e4e9	0.12684979
26	0x3c0b851b	0.008515622
27	0xbdbe2b84	-0.09285644
28	0xbd841054	-0.06448427
29	0x3dc40cfb	0.09572788
30	0xbde54b93	-0.11196055
31	0x3c49f3f1	0.012326227
32	0xbbbc64a8	-0.005749304
33	0xbc42e176	-0.011894574
34	0x3dd96068	0.10614091
35	0x3d1bd88f	0.038048323
36	0xbdf83eef	-0.12121379
37	0xbd3f1547	-0.04665115
38	0xbe0a6480	-0.135149
39	0x3c8387c1	0.016055943
40	0x3c5d02b3	0.013489413
41	0xbcad3484	-0.021143205
42	0xbd190959	-0.03736243
43	0xbda1ce80	-0.07900715
44	0xbe3395ed	-0.17537661
45	0x3c8699c6	0.016430747
46	0x3d67f814	0.05663307
47	0x3d09e6ab	0.033667248
48	0xbcf1cf21	-0.029517712
49	0x3d86d6ac	0.06583914
50	0xbd41d38f	-0.0473209
51	0x3d7dadd0	0.06193334
52	0x3d1cf763	0.038321864
53	0x3d687faa	0.056762375
54	0xbca90463	-0.020631975
55	0xbcdd4ac5	-0.027013192
56	0x3dc8aec1	0.09798957
57	0x3d6cc144	0.0578015
58	0x3d9eb345	0.07749037
59	0xbd0a0b2c	-0.03370206
60	0x3cad6456	0.021166008
61	0xbd82b2aa	-0.06381734
62	0x3cd49794	0.025951184
63	0xbd3c36ed	-0.04595082
64	0x3df6572e	0.12028347
65	0xbcc8473f	-0.024448035
66	0x3cc818ee	0.02442595
67	0x3dd430d8	0.10360879
68	0x3e0a97c6	0.1353446
69	0x3d5a792c	0.053338215
70	0xbd86966e	-0.06571661
71	0xbd257573	-0.04039521
72	0xbdeff82c	-0.11717257
73	0x3d88967b	0.06669327
74	0x3c991be8	0.018690065
75	0x3db7c0c7	0.08972316
76	0xbcb6fe39	-0.02233802
77	0xbc192ca8	-0.009349026
78	0x3ce89db6	0.028395515
79	0xbce7ad0d	-0.02828076
80	0x3d076e71	0.03306431
81	0xbdcf725d	-0.10129235
82	0xbc9378c7	-0.018001927
83	0xbc078a8f	-0.008272781
84	0xbd2f3f8d	-0.042785216
85	0x3d562bc0	0.052287817
86	0xbc97894b	-0.018498084
87	0x3ccd6780	0.025073767
88	0xbd2d75fb	-0.042348843
89	0x3c8846fd	0.016635412
90	0xbdf92a49	-0.121662684
91	0x3c16491c	0.009172704
92	0x3dbdd9d5	0.09270064
93	0x3d433469	0.047657404
94	0x3cf52dc6	0.029929053
95	0x3d76e38d	0.060275603
96	0xbd6a5abe	-0.057215445
97	0x3d358bb4	0.044322684
98	0x3d8027f9	0.06257624
99	0xbca24d0a	-0.019812126
100	0x39df3cdf	0.00042579227
101	0xbbdd9a8a	-0.0067628073
102	0x3e1db110	0.15399575
103	0xbc978b79	-0.018499123
104	0x3d55049d	0.052006353
105	0xbd34d941	-0.044152502
106	0x3d6a90f8	0.05726716
107	0xbdf7fb9b	-0.12108537
108	0x3cf84b2f	0.030309288
109	0x3d8b06fa	0.0678844
110	0xbd570eab	-0.052504223
111	0x3ddedd5a	0.10882063
112	0x3cd366a8	0.025805786
113	0x3cb6db95	0.022321502
114	0x3d698d54	0.057019547
115	0xbdb2e105	-0.08734325
116	0x3dc628ae	0.09675728
117	0xbd0e157a	-0.03468845
118	0x3d99dee5	0.07513217
119	0xbdfff626	-0.12498121
120	0x3a82b8c5	0.0009973279
121	0xbc776241	-0.015099109
122	0x3d6dd500	0.05806446
123	0x3df7da36	0.12102167
124	0xbbc37365	-0.005964684
125	0x3c0f6f35	0.008754541
126	0xbd212d0e	-0.039349608
127	0x3d61d7ea	0.055137552

i2o.weight f4 [18, 186]
0	0x3f915d1e	1.1356542
1	0x3b87a922	0.0041400352
2	0x3ed432d0	0.41445017
3	0xbe8f50ed	-0.2799143
4	0xbf2b71ad	-0.6697033
5	0xbe735c13	-0.23765592
6	0xbe2c2a96	-0.1681312
7	0x3e1444cc	0.14479369
8	0xbf4cce2c	-0.80002093
9	0x3dd22c62	0.102623716
10	0x3fd80110	1.6875324
11	0x3f71439d	0.94243795
12	0xbe8a938b	-0.2706569
13	0xbf1730db	-0.5905892
14	0xbf37c135	-0.71779186
15	0x3e83017b	0.25587067
16	0xbc3f1852	-0.011663513
17	0x3ec528c7	0.38507673
18	0xbf36fd57	-0.71480316
19	0xbc35ad02	-0.011088612
20	0xbe7356c9	-0.23763575
21	0xbe195b7e	-0.14976308
22	0xbc7ea291	-0.015541689
23	0xbe21704e	-0.15765497
24	0x3e69bec2	0.22826675
25	0x3c43b757	0.011945567
26	0xbd7765cf	-0.060399827
27	0x3e09bfb2	0.13452032
28	0x394e1200	0.00019652396
29	0x3d31cc78	0.043407887
30	0xbca4b054	-0.020103611
31	0xbd8680cb	-0.06567534
32	0xbcf2eff0	-0.029655427
33	0xbd12af78	-0.03581187
34	0xbcf2fb5c	-0.029660873
35	0x3ca0f924	0.01965005
36	0x3ce69aac	0.028149925
37	0xbcf62282	-0.030045751
38	0x3d89c903	0.06727793
39	0xbd5738aa	-0.052544273
40	0x3cb6012b	0.022217354
41	0xbd937e85	-0.07201866
42	0xbb8278e0	-0.0039816946
43	0xbd8016b6	-0.06254332
44	0x3d5ca2c2	0.053866155
45	0xbd7ff4e6	-0.062489413
46	0x3d8ce565	0.06879691
47	0xbd159556	-0.03651937
48	0xbd0fb26b	-0.035082262
49	0x3d5ab67a	0.05339668
50	0xbd6b84f8	-0.057499856
51	0xbb30a2e0	-0.002695255
52	0xbe45e161	-0.19324256
53	0x3d2ea9ec	0.04264252
54	0x3ce41cc8	0.027845755
55	0xbd54ae30	-0.05192393
56	0xbd501c8e	-0.050808482
57	0x3d846e69	0.064663716
58	0xbca28277	-0.019837601
59	0x3c0144a9	0.007889905
60	0xbd76ea70	-0.06028217
61	0xbe6b0b56	-0.22953543
62	0x3e60acf2	0.21940973
63	0x3bd8750f	0.0066057513
64	0xbd0de8c2	-0.034645803
65	0x3d2c9bbd	0.04214071
66	0xbd715b21	-0.058924798
67	0x3e183f51	0.14867903
68	0xbd68d051	-0.05683929
69	0xbe59ba4f	-0.21262477
70	0xbd70094e	-0.058602624
71	0x3d33e2d6	0.0439175
72	0x3d63050f	0.055424746
73	0xbda2146a	-0.0791405
74	0x3d8b5c47	0.0680471
75	0x3d1d5cdd	0.03841864
76	0xbe0d4d9e	-0.1379914
77	0x3dbade48	0.09124428
78	0x3eae85c1	0.3408642
79	0xbdbf159a	-0.09330292
80	0x3c034a83	0.00801337
81	0x3e060da8	0.13091147
82	0xbdcf3895	-0.10118214
83	0xbe0b5cec	-0.13609666
84	0xbe565c48	-0.2093364
85	0xbe631f48	-0.22179902
86	0xbdff47a5	-0.12464837
87	0x3d1a7ba1	0.037715558
88	0x3cc169b6	0.023609977
89	0xbce0252a	-0.027361471
90	0x3e328aee	0.1743581
91	0xbdf7dc3a	-0.12102552
92	0x3e1f81e2	0.1557689
93	0x3df11839	0.11772198
94	0xbdbb109b	-0.091340266
95	0xbe8519ad	-0.25996152
96	0xbd219e35	-0.03945752
97	0x3e92a529	0.28641632
98	0xbe2218ab	-0.15829723
99	0x3d48e14f	0.049042996
100	0x3c3596d0	0.01108332
101	0xbe146ccb	-0.14494626
102	0xbdca2511	-0.09870351
103	0x3dca9479	0.098916
104	0xbc041442	-0.00806147
105	0xbdb0ee46	-0.08639197
106	0xbd7e3878	-0.06206557
107	0xbbd0a4cf	-0.006367303
108	0x3dcc8643	0.09986546
109	0x3cec8ed3	0.028876698
110	0xbd2c749e	-0.042103402
111	0xbcfa975f	-0.030589757
112	0x3eb463d5	0.35232416
113	0xbe70b3c3	-0.23506074
114	0xbe147a03	-0.14499669
115	0xbdf44eaf	-0.1192907
116	0x3e336599	0.17519225
117	0xbdafc4fa	-0.08582492
118	0x3e4a8e89	0.19780935
119	0xbe5b0f46	-0.21392545
120	0x3e227d59	0.15868129
121	0x3c1e3631	0.009656475
122	0xbe0c636e	-0.13709804
123	0x3d9c39cf	0.076282136
124	0xbe038349	-0.1284305
125	0xbde3967a	-0.111126855
126	0x3e6fca05	0.23416908
127	0xbe93b929	-0.28852203
128	0xbe4227a9	-0.18960442
129	0x3cfb78eb	0.030697307
130	0x3e84b5b6	0.25919884
131	0x3c9944c4	0.018709548
132	0xbdeecaea	-0.116597965
133	0x3e584cd1	0.21123053
134	0xbced39c6	-0.028958213
135	0x3d331a57	0.04372629
136	0x3ccf2162	0.025284473
137	0xbdb6f97e	-0.089343056
138	0x3e088b0c	0.13334292
139	0xbe28e03b	-0.16491787
140	0xbe7389d3	-0.23783045
141	0x3d64c8ed	0.05585568
142	0xbd3c2501	-0.045933727
143	0xbd38d30c	-0.045123145
144	0xbde187b3	-0.11012211
145	0xbe36130e	-0.17780706
146	0xbd4ab766	-0.04949131
147	0xbd5a2fc1	-0.053268198
148	0x3de96764	0.11396673
149	0xbe220c01	-0.15824892
150	0x3ca7c30c	0.020478748
151	0x3dbbcc63	0.09169843
152	0x3e3df3f6	0.18550095
153	0xbe3f9e77	-0.18712793
154	0x3e7c07dd	0.24612375
155	0x3d592944	0.05301787
156	0x3dfadca2	0.122491136
157	0x3e3a4887	0.1819173
158	0x3d1b818d	0.037965346
159	0xbc0f1b58	-0.008734547
160	0xbe1382a6	-0.14405307
161	0xbda35eeb	-0.079770885
162	0xbe4d0cdb	-0.20024435
163	0xbdb7afbd	-0.08969066
164	0x3dde383e	0.10850571
165	0x3d5ea7ba	0.054359175
166	0xbccbade3	-0.02486319
167	0x3e7482a9	0.23877968
168	0xbd7fc4c5	-0.062443513
169	0x3e3daa06	0.1852189
170	0xbd42f76a	-0.047599234
171	0xbce9cd1b	-0.028540185
172	0xbe0b812d	-0.13623495
173	0x3de4eaa1	0.111775644
174	0xbe09a11e	-0.13440368
175	0xbe902ebe	-0.2816066
176	0xbe1a30a9	-0.15057625
177	0x3dcc4360	0.09973788
178	0x3d64aed1	0.05583078
179	0x3b88a3df	0.0041699256
180	0xbe641b51	-0.22276045
181	0x3e0284c4	0.12745959
182	0x3e2181f5	0.15772231
183	0xbe8d29d2	-0.2757097
184	0xbe14e23f	-0.14539431
185	0x3d4daece	0.050215535
186	0xbf9e3219	-1.2359039
187	0x3d84e1fb	0.06488415
188	0xbe009a44	-0.12558848
189	0x3eaa146a	0.332187
190	0x3d023d90	0.03179699
191	0x3e390de4	0.18071705
192	0x3e58d425	0.21174677
193	0x3e77c5ad	0.24196501
194	0xbf0fb54f	-0.5613603
195	0xbd8c493f	-0.06849908
196	0xbe037981	-0.12839319
197	0x3f10cc39	0.5656162
198	0xbd72f22c	-0.059312984
199	0x3f091735	0.53551036
200	0xbf69a62a	-0.9126917
201	0x3e2d8c29	0.16947998
202	0x3d2c67bd	0.04209112
203	0x3fe47496	1.7848079
204	0xbe69f7cc	-0.22848433
205	0x3f25d9a2	0.64785206
206	0xbe86146f	-0.26187465
207	0xbe95dcd0	-0.2927003
208	0xbd8eb813	-0.06968703
209	0xbdd1b4e7	-0.102395825
210	0xbf42f4e8	-0.7615495
211	0x3f192236	0.59817827
212	0x3d6d3932	0.057915874
213	0xbce1f321	-0.027581753
214	0x3d377f4e	0.04479914
215	0xbd0e51da	-0.03474603
216	0x3d2a6526	0.04160037
217	0x3d4cf3c2	0.050037153
218	0xbd35e962	-0.044412024
219	0xbb1f43a0	-0.0024301782
220	0x3d7d345a	0.061817504
221	0x3d40dc9a	0.047085382
222	0xbd2c5926	-0.042077206
223	0x38bf7c00	9.1306865e-05
224	0xbd189add	-0.037257064
225	0xbd40f320	-0.047106862
226	0x3d24eafb	0.040263157
227	0xbcfee822	-0.031116549
228	0x3ce6e1e0	0.028183877
229	0xbd0931cf	-0.033494767
230	0x3d8d255f	0.068918936
231	0x3cabde4c	0.020980023
232	0x3d05cbdc	0.03266512
233	0x3d825d17	0.06365412
234	0x3cdd75ec	0.027033769
235	0xbc3bb7c8	-0.011457391
236	0x3d77abd2	0.060466595
237	0x3cd7a848	0.02632536
238	0xbdd3c767	-0.10340767
239	0x3b2ed3a0	0.0026676431
240	0xbd6d722c	-0.05797021
241	0xbd502e3a	-0.050825335
242	0x3d93bcb3	0.07213726
243	0x3c981100	0.018562794
244	0x3e359838	0.17733848
245	0xbe25e3e5	-0.16200216
246	0xbcc5952e	-0.024118986
247	0xbe3fa88a	-0.18716636
248	0xbb90df4d	-0.004421151
249	0xbe0fce2b	-0.1404349
250	0xba0719bf	-0.0005153678
251	0x3e2f5e06	0.17125711
252	0x3d98522e	0.074375495
253	0x3d724984	0.05915214
254	0x3dbd5b92	0.09245981
255	0x3d244e4c	0.040113732

i2o.bias f4 [18]
0	0x3e6a1397	0.22859035
1	0x3ee23523	0.44181165
2	0x3cbb0108	0.02282764
3	0xbebebba9	-0.37252548
4	0x3e4d2ba6	0.20036182
5	0x3ecdbb27	0.40181848
6	0xbd55e6ee	-0.052222185
7	0x3e0fc29a	0.14039078
8	0xbd4b9124	-0.049698964
9	0x3f043c58	0.5165458
10	0xbde04424	-0.10950497
11	0xbf85db5b	-1.0457567
12	0xbef9026b	-0.48634657
13	0xbee26029	-0.4421399
14	0x3d05cc33	0.032665443
15	0x3d9858fc	0.074388474
16	0x3f44be69	0.7685304
17	0xbe72f75f	-0.23727177
